WestPoint/Artificial Inteligence/project5/project5_mayara.pt (torch, 976231 bytes, 10 tensors)

0.weight f4 [256, 784]
0	0xbcf9c4e6	-0.030489396
1	0xbd00c8f3	-0.03144164
2	0x3cd84d84	0.02640415
3	0xbcca7030	-0.024711698
4	0xbcf83d11	-0.030302556
5	0x3a498e73	0.0007688768
6	0xbc9727b3	-0.018451547
7	0x3cc07b18	0.023496196
8	0xbc7b208b	-0.015327583
9	0x3c28dd44	0.01030666
10	0x3bd9e0d3	0.0066491156
11	0x3cb5c6d7	0.02218954
12	0xbc4b4558	-0.01240667
13	0xbc8bada5	-0.017050574
14	0xbb88a52a	-0.0041700797
15	0xbbd6c352	-0.0065540457
16	0x3d063d35	0.032773215
17	0x3d01257e	0.031529896
18	0xbcbe8912	-0.02325872
19	0x3c5c2493	0.013436454
20	0x3c28ba2e	0.010298295
21	0xbce2a4a2	-0.027666394
22	0xbca765e2	-0.020434324
23	0x3c32375e	0.010877458
24	0x3c4e3f25	0.012588297
25	0xbbaa997b	-0.0052062846
26	0xbcfee156	-0.031113308
27	0x3bbd72e6	0.005781519
28	0xbb631cfb	-0.0034654725
29	0x3ac1b564	0.001477879
30	0x39d2254c	0.0004008211
31	0x3cc6ecfa	0.024282921
32	0xbbb9e7ea	-0.0056733983
33	0xbcb5045d	-0.022096807
34	0xbd0e918a	-0.034806766
35	0x3c9132e1	0.017724456
36	0x3ac61e4e	0.0015115233
37	0x3cf91631	0.03040609
38	0x3ac7b03b	0.0015235016
39	0xbc0bd158	-0.008533798
40	0x3b905e8f	0.0044058035
41	0xbbdd2df5	-0.0067498633
42	0x3c8efba8	0.017453983
43	0xbd140fba	-0.03614781
44	0x3be4dc5b	0.006984276
45	0x3aa67137	0.0012698536
46	0x3c21ad1e	0.0098679345
47	0x3c6c38ad	0.014417809
48	0xbcf5bca1	-0.029997172
49	0xbcb889e7	-0.022526694
50	0xbb5e87ba	-0.003395541
51	0xba1c36e7	-0.0005959109
52	0xbd0530d3	-0.032517266
53	0x3cc71cb0	0.024305671
54	0xbc1a9daa	-0.009437004
55	0xbbe69ff5	-0.0070381113
56	0xbc8fb743	-0.01754344
57	0xbd116692	-0.03549821
58	0x3c21e330	0.009880826
59	0x3cab841c	0.020937018
60	0xbbd4bb14	-0.006492028
61	0x3c9a4724	0.01883275
62	0x3c1c8941	0.009554208
63	0x3c0ee419	0.008721375
64	0xbd0bba56	-0.03411325
65	0xbc359dd7	-0.011084995
66	0xbcdc02b6	-0.026856761
67	0x3bf14536	0.007362987
68	0x3c2f704d	0.010707927
69	0x3d038d27	0.032117035
70	0xbcea31c0	-0.028588176
71	0x3c4d986a	0.012548545
72	0xbcc28469	-0.023744779
73	0x3bca1178	0.006166633
74	0xbd002ae0	-0.03129089
75	0xbcfb64a3	-0.030687636
76	0xbc0a967c	-0.00845873
77	0x3b69146e	0.0035565156
78	0xbc77d570	-0.015126571
79	0x3b1f21d8	0.0024281647
80	0xbb9ad082	-0.004724563
81	0xbbf5db66	-0.007502961
82	0xbd00a02f	-0.031402763
83	0x3c8fb602	0.017542843
84	0xbcead9f2	-0.028668378
85	0x3bdf2dd3	0.0068108826
86	0xbc0c5981	-0.008566261
87	0x3b431220	0.0029765442
88	0x3c1da45e	0.009621708
89	0xbc5ccd47	-0.013476676
90	0xbc1b7916	-0.009489318
91	0x3c9bbe58	0.019011661
92	0xbc3d5086	-0.011554843
93	0x3a41ba43	0.0007390121
94	0xbc83d54e	-0.016092923
95	0x3cec6ee2	0.028861467
96	0x3cd4ea79	0.025990712
97	0xbd0d4fa8	-0.034499794
98	0xbc12824c	-0.008942198
99	0x3cd68638	0.026187047
100	0x3a876662	0.0010330195
101	0xbcdaabc9	-0.026693242
102	0x3d0886ed	0.0333318
103	0xbc07ea55	-0.008295615
104	0x3c9a9855	0.018871466
105	0x3c8711f9	0.016488062
106	0x39cefbe6	0.0003947906
107	0x3cd8af22	0.026450697
108	0xbcb13056	-0.021629494
109	0xbbe2cecc	-0.0069216248
110	0x3cdcd840	0.026958585
111	0x3b58b107	0.00330645
112	0xbca1bfe2	-0.019744817
113	0x3b5ca770	0.0033669136
114	0xbcad12bc	-0.021127097
115	0x3c3e3483	0.011609199
116	0xbccebd98	-0.02523689
117	0x3cbb36d4	0.022853293
118	0xbc25962b	-0.010106604
119	0xbcacbb00	-0.021085262
120	0x3c8fc6fb	0.017550936
121	0x3c7cbe15	0.015426178
122	0xbcc3945e	-0.023874458
123	0xbc37996c	-0.011206012
124	0x3d0ae79c	0.033912286
125	0xbc4e0253	-0.012573796
126	0xbae0897c	-0.0017130817
127	0x3cea2c76	0.028585654
128	0xbca7d349	-0.02048649
129	0x3bf9e0d0	0.0076256767
130	0x3b95d451	0.004572429
131	0x3b232ece	0.0024899724
132	0x3d018fe3	0.03163136
133	0xbc200e9b	-0.009769107
134	0x3c9e3b98	0.019315526
135	0x3badea3f	0.0053074653
136	0x3bf475ea	0.0074603455
137	0x3c99bc24	0.01876647
138	0xbca9cb59	-0.020726847
139	0x3c703068	0.014659978
140	0xbc3e98ad	-0.01163308
141	0xbd10f862	-0.035393126
142	0x3c0a3bad	0.008437079
143	0x3ce52c0a	0.027975101
144	0x39e1e8a3	0.00043088672
145	0x3c02ef7e	0.00799167
146	0x3cb1125f	0.021615205
147	0x3c9340b7	0.017975194
148	0x3cfe2985	0.031025657
149	0x3cf8eb52	0.030385647
150	0xbc2cc106	-0.010544067
151	0xbcd63f03	-0.026153093
152	0xbbda8d43	-0.0066696717
153	0x3917e41a	0.00014485457
154	0xbbf15414	-0.007364759
155	0xbd05b188	-0.03264001
156	0xbd083811	-0.033256594
157	0x3d0a9a4c	0.033838555
158	0xbc7c871e	-0.015413074
159	0x3c16fc4f	0.0092154285
160	0xbc8efce7	-0.017454578
161	0x3c66c5fb	0.014085288
162	0xbabe9bdb	-0.0014542298
163	0xbc85b3e4	-0.01632113
164	0xbd0f8198	-0.0350357
165	0xbc2c765e	-0.010526268
166	0x3d0530ab	0.032517117
167	0x3c872cb9	0.016500818
168	0xbc815f02	-0.015792374
169	0x3a6be381	0.00089984393
170	0x3d025bce	0.031825833
171	0x3cdfea92	0.027333532
172	0xbcf0e00a	-0.029403705
173	0xbbce650a	-0.006298666
174	0xbc82c07a	-0.01596092
175	0xbc625112	-0.013813274
176	0x3c98eb5a	0.018666912
177	0x3c574398	0.013138674
178	0xbc963a92	-0.018338475
179	0xbc004a72	-0.007830249
180	0x3c168462	0.009186836
181	0xbc42953b	-0.0118764
182	0xb9fa92e4	-0.00047793158
183	0xbc835fc5	-0.016036877
184	0x3cba7397	0.022760196
185	0xbb8f87a8	-0.004380185
186	0x3ca4ed76	0.020132761
187	0x3aa49a85	0.0012558257
188	0xbb8efee2	-0.0043638805
189	0xbc725490	-0.014790669
190	0x3d03083b	0.03199027
191	0x3c369caa	0.01114575
192	0xbd10f6e1	-0.035391692
193	0x3cbba317	0.022904916
194	0x3bae1a42	0.005313189
195	0xbc68395d	-0.014173833
196	0xbc890b70	-0.016729087
197	0xbb2f5abf	-0.002675697
198	0x3b4ab3ef	0.0030930003
199	0x3cf294c1	0.029611947
200	0x3d015aff	0.03158092
201	0xbccf1da5	-0.02528269
202	0x3d00c23f	0.031435248
203	0x3cdefedd	0.027221138
204	0xbc8ea49e	-0.01741248
205	0x3c8b3bb3	0.01699624
206	0xbc5e42e3	-0.013565752
207	0xbc3dd25a	-0.011585796
208	0x3c627aab	0.013823192
209	0xbd02d28b	-0.03193907
210	0x3c97bb47	0.018521918
211	0x3cde91a5	0.027169058
212	0xbaee6008	-0.0018186579
213	0x3b850249	0.0040591103
214	0xbcfb8702	-0.030704025
215	0x3be51626	0.0069911657
216	0x3c9f5839	0.019451248
217	0x39dd1aa4	0.00042172254
218	0x3d0ab205	0.03386118
219	0xbbe67d65	-0.007033991
220	0x3c9dbdd9	0.019255565
221	0x3cc27ee3	0.023742145
222	0x3ce17d51	0.027525576
223	0xbc8d181b	-0.017223408
224	0x3c6149d3	0.013750511
225	0xbcebafe4	-0.028770395
226	0xbc723281	-0.014782549
227	0xbbba1ed2	-0.0056799436
228	0x3cc366fd	0.02385282
229	0xbcc99536	-0.024607282
230	0xbc97b836	-0.018520456
231	0xbb4f663c	-0.003164663
232	0x3c5b5412	0.013386743
233	0x398de5fe	0.00027064973
234	0x3c364159	0.0111239785
235	0x3c986f95	0.018607894
236	0xbb9d1920	-0.004794255
237	0x3a77b738	0.0009449604
238	0x3b1666fe	0.0022949572
239	0x3ca3c63c	0.019991986
240	0x3cea0e0c	0.028571151
241	0x3c8e6e73	0.01738665
242	0xbbe6f021	-0.0070476686
243	0xbccfc5f0	-0.025362939
244	0x3b06838e	0.002052519
245	0xbcdd77d7	-0.027034683
246	0xbc8d7d4a	-0.017271657
247	0xbb9194f9	-0.0044428078
248	0x3c2d2d03	0.010569814
249	0xbc05b346	-0.008160418
250	0x3d017bf4	0.03161235
251	0x3ce3a131	0.027786823
252	0xbd0214e1	-0.031758193
253	0xbd0d01cb	-0.034425538
254	0x3c10a809	0.008829125
255	0x3cd26ee1	0.025687637

0.bias f4 [256]
0	0xbcd5303b	-0.026023975
1	0x3cd4ee67	0.025992585
2	0xbb95646e	-0.0045590913
3	0x3d0fc95e	0.035104148
4	0x3b74a1fd	0.0037327998
5	0xbc56c52c	-0.013108533
6	0x3ca72135	0.020401577
7	0xbcc8f087	-0.024528755
8	0x3d08b967	0.03337994
9	0x3c45272b	0.012033264
10	0xbb6057a6	-0.003423193
11	0xbcb2b5dc	-0.021815233
12	0x3c2f1ab4	0.010687519
13	0xbc914446	-0.01773275
14	0xbcfb489c	-0.030674271
15	0xbbedc79d	-0.007256462
16	0x3cc09105	0.02350665
17	0x3beb65f1	0.007183783
18	0x3c642614	0.013925094
19	0xbc30dfde	-0.010795562
20	0x3ca620d2	0.020279322
21	0x3cfa5cdb	0.030561855
22	0x3cb43d1f	0.022001801
23	0xbbafd8c0	-0.005366415
24	0xbb10bfef	-0.0022087058
25	0xbc71a4e6	-0.0147487875
26	0xbca79fdd	-0.020461971
27	0x3cd0f5f1	0.025507899
28	0xbce66b76	-0.028127413
29	0xba0405df	-0.0005036275
30	0x3cfae63a	0.030627359
31	0xbd034b9d	-0.032054532
32	0xbbf8f8b5	-0.0075980076
33	0xbcaaffed	-0.020873988
34	0x3a720575	0.00092323805
35	0x3c7bbcb1	0.015364812
36	0x3c733dd9	0.014846289
37	0x3cb37622	0.021906916
38	0xba0d284a	-0.00053847267
39	0xbcc50e9a	-0.024054814
40	0x3cd89a1e	0.026440676
41	0x3c78d14f	0.015186622
42	0x3d07eb42	0.033183344
43	0xbcbd3528	-0.023096636
44	0xbc2de28e	-0.010613097
45	0xbbb266dd	-0.005444391
46	0xbb78b855	-0.0037951667
47	0x3d01ba9a	0.031672098
48	0x3b6c042f	0.0036013236
49	0xbce24dc1	-0.027624967
50	0xbcb02728	-0.021503046
51	0x3c3eb4fd	0.011639831
52	0x3c1b2ea4	0.009471569
53	0xbc021e87	-0.007941849
54	0xbabf47cf	-0.0014593544
55	0xbc0fecb8	-0.0087844655
56	0x3cf28794	0.029605664
57	0xbcf7aaa1	-0.03023273
58	0x3b95a471	0.004566722
59	0x3cf47b95	0.029844085
60	0x3c8a1a0c	0.016858123
61	0xbd125a99	-0.035730932
62	0x3cdce73f	0.026965735
63	0x3c8c060b	0.017092725
64	0x3c9fdda1	0.01951486
65	0x3cfa501e	0.030555781
66	0xbcdab949	-0.026699679
67	0xbc0e1c9e	-0.008673815
68	0xba12c97e	-0.00055994827
69	0xbcdaf383	-0.026727444
70	0xbbed3879	-0.007239398
71	0xbca4d65b	-0.020121744
72	0xbc826ef9	-0.015922057
73	0xbcb24d26	-0.021765303
74	0x3cc08bb3	0.023504114
75	0x3bb0f818	0.005400669
76	0x3cc09ad5	0.02351133
77	0x3c2e91cf	0.010654881
78	0xbcad8c0a	-0.02118494
79	0x3c573c6a	0.013136962
80	0x3cb209e8	0.02173324
81	0x3c609568	0.013707496
82	0xbc4e22c8	-0.012581535
83	0x3cede69c	0.029040627
84	0x3d0970e0	0.03355491
85	0x3be3f5bf	0.0069567855
86	0xbcf50e67	-0.029914094
87	0xbc1d2a0e	-0.009592546
88	0x3a6c5075	0.00090146746
89	0x3cdfc2fc	0.027314655
90	0x3c4aeab3	0.012385058
91	0x3bb78f11	0.0056017716
92	0xbbf20303	-0.007385613
93	0xbc9c0ecf	-0.01905003
94	0x3cf5f6cf	0.030024914
95	0x3b32ea60	0.0027300343
96	0xbca990f1	-0.020698996
97	0xba4da01a	-0.00078439864
98	0x3b7163c2	0.0036833142
99	0xbbf96556	-0.007610957
100	0xbb060c01	-0.0020453932
101	0xbd0384b2	-0.03210897
102	0xbd0df6e4	-0.03465928
103	0x3c9efe60	0.019408405
104	0xbcc9c973	-0.024632191
105	0x3c8b8946	0.01703323
106	0xbc84205c	-0.016128711
107	0x3c87bfef	0.016571013
108	0x3d09b276	0.03361746
109	0xbcfe19b9	-0.031018125
110	0x3d086731	0.033301536
111	0x3cfcec6b	0.030874452
112	0x3b6dd4d1	0.0036290179
113	0x3ac39317	0.0014921156
114	0xbc8830a6	-0.01662476
115	0xbcfbb0d6	-0.03072397
116	0x3c9c25df	0.019061027
117	0x3b961dfe	0.004581212
118	0x3ccd6dfe	0.025076862
119	0xbc348161	-0.011017174
120	0x3cddf5bd	0.027094716
121	0x3cfa11d9	0.030526089
122	0x3cc11d4f	0.023573546
123	0x3c92e217	0.017930074
124	0x3bda5d1a	0.0066639306
125	0xbc94668d	-0.018115306
126	0x3d0ae241	0.03390718
127	0x3c94893a	0.018131841
128	0x3bbddc50	0.0057940856
129	0xbb2f0416	-0.0026705316
130	0xbc1e8348	-0.009674855
131	0x3c8c73f5	0.017145136
132	0x3c918a29	0.017766075
133	0xbc8cdd52	-0.017195377
134	0x3c4bc310	0.012436643
135	0x3bd051e5	0.006357419
136	0x3c5a8dc7	0.013339466
137	0xbcc13c08	-0.023588195
138	0x3c51183e	0.012762127
139	0xbcd0c0a0	-0.025482476
140	0xbc251ef2	-0.010078179
141	0x3cc369dd	0.02385419
142	0x3b26d222	0.0025454839
143	0x3ab3ee88	0.0013727704
144	0x3bab0546	0.0052191345
145	0xbc0e0947	-0.008669204
146	0xbc8fc7ae	-0.01755127
147	0x3b7ef522	0.0038903435
148	0x3bb989ea	0.0056621926
149	0x3a7cb475	0.00096399273
150	0x3bd0114a	0.0063497173
151	0x3c488e25	0.012240921
152	0x3d0dc531	0.034611885
153	0xbb7ce103	-0.0038586266
154	0xbcadaff7	-0.02120207
155	0xbbfc7bb4	-0.0077051762
156	0x3cb35db8	0.021895275
157	0xbc6bdeb1	-0.0143963555
158	0xbc95981b	-0.018261006
159	0xba1c46f4	-0.00059615006
160	0xba969514	-0.001148852
161	0xbcf20872	-0.029545043
162	0x3b028034	0.001991284
163	0xbc2f533a	-0.010700995
164	0xbcf6037d	-0.03003096
165	0x3b4bb99c	0.0031085974
166	0xbc847b82	-0.016172174
167	0x3cc287e3	0.023746436
168	0x3a7d65a3	0.0009666329
169	0x3c4067ac	0.011743467
170	0x3cbe4b11	0.023229154
171	0x3cfdd935	0.030987361
172	0xbca1f446	-0.019769799
173	0xbc1e63d3	-0.009667355
174	0xbbc799e7	-0.0060913446
175	0x3cc83a1a	0.024441767
176	0x3ca8e240	0.020615697
177	0xbae9b42c	-0.0017830185
178	0xbcfc534d	-0.03080144
179	0xbccfcc95	-0.025366107
180	0xbd017acc	-0.03161125
181	0x3c4d41cd	0.012527895
182	0xbcb1274b	-0.021625182
183	0x3c6a3544	0.014294926
184	0x3cd8cacf	0.026463894
185	0xbbaa8e85	-0.005204978
186	0x3c16b214	0.009197731
187	0x3ceae375	0.028672913
188	0xbbb1a079	-0.005420741
189	0xbc6d496f	-0.01448284
190	0x3cea3670	0.028590411
191	0xbcd867bd	-0.026416654
192	0x3c863228	0.016381338
193	0x3c83939e	0.0160616
194	0xbced296a	-0.028950412
195	0x3d103279	0.035204384
196	0xbcfc7184	-0.030815847
197	0xbc9da06d	-0.019241536
198	0x3c279849	0.010229179
199	0x3d0f9275	0.03505178
200	0xbce09d11	-0.027418645
201	0xbb0f8b1b	-0.0021902982
202	0x3cc8f24e	0.024529602
203	0x3c43e36e	0.011956079
204	0xbc8a6598	-0.016894147
205	0xbc908519	-0.01764159
206	0xbc13e9ca	-0.009027908
207	0xbc8390c7	-0.016060246
208	0x3d0f48ea	0.034981646
209	0xba0742c7	-0.0005159792
210	0xbcdaaa21	-0.026692452
211	0x3c22fd2f	0.009948059
212	0xbb5c6e82	-0.0033635204
213	0x3cd4a778	0.025958762
214	0x3cf62c14	0.030050315
215	0x3ae9dae8	0.0017841728
216	0xbcf77b95	-0.030210296
217	0xbd03ab45	-0.032145757
218	0x3befcd49	0.007318173
219	0xbcd82141	-0.026383044
220	0x3aa85f21	0.0012845733
221	0xbaa6171c	-0.0012671682
222	0x3cd60f68	0.026130393
223	0x3cda74b3	0.026666975
224	0x3c555e2b	0.01302294
225	0xbb778146	-0.0037766262
226	0xbc8946dd	-0.016757423
227	0x3cdc8815	0.026920358
228	0x3bdb8cbb	0.006700126
229	0x3c6527b2	0.013986515
230	0xbcc2b785	-0.02376915
231	0x3ce61fe5	0.02809138
232	0xbc9b0598	-0.018923566
233	0xbc4ad03d	-0.012378749
234	0xbc718981	-0.014742256
235	0xbc583bf7	-0.0131978905
236	0xbcc4b95e	-0.024014171
237	0x3a38f2d5	0.0007055228
238	0x3c479dd4	0.012183625
239	0x3c841abe	0.016126033
240	0xbc0db115	-0.008648177
241	0x3c2e456c	0.010636669
242	0x3c7d2f5f	0.015453189
243	0xbc99be2d	-0.01876744
244	0x3d098b71	0.033580247
245	0xbc2ccc33	-0.010546732
246	0x3c48e947	0.012262649
247	0xba943e09	-0.0011309992
248	0x3c8c9c0a	0.017164249
249	0xbc79941d	-0.015233067
250	0xbca49177	-0.020088894
251	0xbcaff090	-0.021477014
252	0x3cdf3aed	0.027249778
253	0x3c155d3c	0.009116467
254	0xbce422c5	-0.02784861
255	0xbc6d1a9f	-0.014471679

2.weight f4 [128, 256]
0	0x3d25b7a0	0.04045832
1	0x3cde92d0	0.027169615
2	0xbd172ba5	-0.036906857
3	0xbbf60380	-0.0075077415
4	0xbc9b85c6	-0.018984687
5	0x3cd78af6	0.026311379
6	0xbc344f83	-0.011005285
7	0xbd908dd3	-0.07058301
8	0x3ce5c31e	0.02804714
9	0xbd1a4b3e	-0.037669413
10	0xba1ddc9f	-0.000602195
11	0xbd664e21	-0.056226853
12	0xbd2b2fc2	-0.041793592
13	0x3d2f231b	0.04275809
14	0xbd7e23ff	-0.062046047
15	0x3d160518	0.03662595
16	0xbcda8147	-0.026672972
17	0x3c4c5f4b	0.0124738915
18	0x3d49782e	0.049186878
19	0xbccc54b1	-0.024942728
20	0xbc400cea	-0.011721829
21	0x3d1a507f	0.037674423
22	0xbc59a225	-0.013283287
23	0xbcf999b0	-0.030468792
24	0xbbe14464	-0.006874608
25	0xbc320dae	-0.010867519
26	0x3d73f5e6	0.05956068
27	0xbd115ca7	-0.03548875
28	0xbcc6da90	-0.02427414
29	0x3d4533f4	0.04814525
30	0xbcf24a68	-0.029576495
31	0x3d2523fc	0.04031752
32	0xbd7f4e1d	-0.062330354
33	0x3d3943b6	0.04523059
34	0x3c093622	0.008374723
35	0x3d9cba5c	0.07652733
36	0xbc46fb0f	-0.012144818
37	0x3d371596	0.04469832
38	0xbc8c846e	-0.017152991
39	0xbc044220	-0.008072406
40	0x3ba0331d	0.0048889057
41	0xbd19d5f1	-0.037557546
42	0x3b1ac618	0.0023616608
43	0xbc098fb5	-0.008396079
44	0xbc9c7840	-0.019100308
45	0xbd40234d	-0.046908665
46	0x3a2b9df9	0.0006546672
47	0x3d4eaa43	0.050455343
48	0x3d7dd50d	0.06197076
49	0x3d9aeede	0.075650916
50	0xbd70c0c5	-0.05877759
51	0xbc34c9c3	-0.011034432
52	0x3d304c8e	0.04304176
53	0x3c067056	0.008205494
54	0x3d2bbfe9	0.041931067
55	0x3c691ce1	0.014228077
56	0xbd46dc95	-0.048550207
57	0x3d3947de	0.045234554
58	0xbca78a86	-0.020451795
59	0x3d0515ee	0.032491617
60	0x3d2269a6	0.039651535
61	0x3d186fd3	0.03721602
62	0x3d38ad4d	0.045087148
63	0x3c910a88	0.017705217
64	0x3ba11e1a	0.0049169185
65	0xbd1b3687	-0.0378938
66	0x3ced3c44	0.028959401
67	0x3c7633cd	0.015026999
68	0xbc8c10f1	-0.017097922
69	0xbc95318a	-0.018212099
70	0xbd4e4f27	-0.050368454
71	0x3bf9bf8f	0.0076217125
72	0x3ca4b843	0.020107394
73	0x3d1e246a	0.038608946
74	0xbd3d9a04	-0.04628946
75	0x3ca6dc2f	0.020368664
76	0x3d7fd82d	0.06246202
77	0xbcdd6957	-0.027027769
78	0x39ec91d8	0.0004512209
79	0xbd620009	-0.055175815
80	0x3bf42e1d	0.007451786
81	0x3d42beeb	0.047545355
82	0xbd433524	-0.0476581
83	0x3d55e771	0.052222673
84	0xbc113bb4	-0.008864332
85	0x3d05aecb	0.0326374
86	0xbd493030	-0.04911822
87	0xbd43ae4f	-0.047773656
88	0x3c36bbb2	0.0111531485
89	0x3c93f658	0.018061802
90	0x3c885a25	0.016644547
91	0xbcfc3368	-0.030786231
92	0x3b20106e	0.0024423855
93	0x3d8d7530	0.06907117
94	0x3c78afe0	0.015178651
95	0x3d719ab9	0.058985446
96	0x3d2c1aad	0.042017628
97	0x3c050a78	0.008120172
98	0x3bb63c59	0.005561393
99	0xbc791823	-0.015203509
100	0xbd40d881	-0.047081474
101	0x3c6d3015	0.014476796
102	0xbd5f482c	-0.054512188
103	0x3a23bc7a	0.0006246042
104	0x3d7399f6	0.059473
105	0xbc6d0106	-0.014465576
106	0x3a7f7515	0.00097449246
107	0xbd5b5ff7	-0.053558316
108	0x3c3bbb92	0.0114582945
109	0x3a5ae829	0.00083506346
110	0xbc358716	-0.01107957
111	0xbce7043c	-0.028200261
112	0xbd2fa43b	-0.04288123
113	0xbadf8eda	-0.0017056123
114	0xbbd49719	-0.006487739
115	0x3cfc6681	0.030810596
116	0xbd103772	-0.035209127
117	0x39c75264	0.00038017624
118	0x3d019e70	0.03164524
119	0xbbf86066	-0.007579851
120	0xbd67a30f	-0.05655199
121	0xbd5bbe47	-0.05364826
122	0xbd5320b6	-0.051544867
123	0xbd822ebb	-0.063565694
124	0xbcf5186a	-0.029918868
125	0x3d7f0d91	0.062268797
126	0xbc922613	-0.01784042
127	0x3cf72ecb	0.03017368
128	0x3c417e33	0.011809873
129	0x3d7be2d6	0.061495624
130	0x3c8fadc5	0.017538914
131	0xbd0bc084	-0.034119144
132	0xbd52d86d	-0.05147593
133	0xbc311304	-0.010807756
134	0xbc9c4c75	-0.019079426
135	0x3bffaa50	0.0078022853
136	0xbc63bd29	-0.01390008
137	0x3d0f2be3	0.034953963
138	0xbb6135ca	-0.0034364336
139	0xbd5f8e33	-0.05457897
140	0xbc07e786	-0.008294946
141	0x3c7bbd82	0.015365006
142	0x3d19d299	0.037554357
143	0xbb31304b	-0.0027036841
144	0x3c8add57	0.016951246
145	0x3c55c113	0.013046521
146	0x3ce815af	0.028330652
147	0x3b32463f	0.0027202514
148	0xbd2e9d4e	-0.042630486
149	0x3cb2d99e	0.021832284
150	0xb93018f3	-0.00016793962
151	0xbd3c7c59	-0.046017025
152	0xbd4c6f38	-0.049910754
153	0xbd367922	-0.044549115
154	0xbd0848aa	-0.033272423
155	0x3c8ee93d	0.017445201
156	0xbd486019	-0.04891977
157	0x3d0f0813	0.03491981
158	0x3d0e3ee7	0.034727957
159	0x3c7c34e1	0.015393467
160	0xbd830d58	-0.063990295
161	0xbc8f77c9	-0.017513173
162	0x3ccd8d42	0.025091771
163	0xbd5f0a4e	-0.054453187
164	0xbd463f1e	-0.048400037
165	0xbc9c92de	-0.019113
166	0x3d4f01c3	0.05053879
167	0xbd6b26dd	-0.05741011
168	0xbd6ccd58	-0.05781302
169	0xbcce717c	-0.025200598
170	0x3cfc195c	0.030773811
171	0x3c982f76	0.018577319
172	0xbcc0fb03	-0.023557192
173	0x3d75770c	0.059927985
174	0xbd240267	-0.040041354
175	0xbd7c33b4	-0.061572745
176	0xbd283a68	-0.041071326
177	0xbcfa6ca9	-0.030569391
178	0xbc9e505a	-0.019325424
179	0x3d3c14a1	0.04591811
180	0xbcac86ec	-0.02106043
181	0x3a0fbc21	0.00054830505
182	0xbd6063f4	-0.054782823
183	0xbb90751d	-0.0044084922
184	0x3cca6aa0	0.024709046
185	0xbd287b59	-0.04113326
186	0xbcd28dff	-0.025702475
187	0x3cf9aaed	0.030477012
188	0xbc6ff697	-0.014646194
189	0x3d955eb9	0.072934575
190	0xbd712c3c	-0.058880076
191	0x3b0a8971	0.002113905
192	0x3c9ce0fa	0.019150246
193	0x3d39a00f	0.04531866
194	0xbd47e33a	-0.048800685
195	0xbcba2889	-0.022724407
196	0x3d548163	0.051881205
197	0xbd7d59f7	-0.061853375
198	0x3d30ed92	0.043195315
199	0xbc546e20	-0.012965709
200	0x3d1a199e	0.037622087
201	0x3ca7c6aa	0.020480473
202	0xbbf4f43e	-0.007475405
203	0xbd012961	-0.031533603
204	0x3d609770	0.054831922
205	0xbceb4771	-0.02872059
206	0x3c5870f0	0.01321052
207	0x3d40df42	0.047087915
208	0xbc8e58b7	-0.017376287
209	0x3c240d0e	0.010012878
210	0x3d03d1f7	0.03218266
211	0xbc76b0c3	-0.015056792
212	0x3d10afb1	0.035323802
213	0xbd2e5d8c	-0.042569682
214	0xbcde474d	-0.027133608
215	0xbd45e49c	-0.048313722
216	0xbca56db7	-0.020193918
217	0xbd3c78f8	-0.046013802
218	0x3ccba5a1	0.024859251
219	0x3c8d56d6	0.01725332
220	0x3d01c0ed	0.03167813
221	0xbba5b88b	-0.0050573996
222	0x3d46858d	0.048467208
223	0xbd5a7148	-0.05333069
224	0xbcc01a92	-0.02345017
225	0x3a3abe17	0.00071236625
226	0xbd47b34c	-0.048754975
227	0xbc9d3ac0	-0.019193053
228	0x3d5802c0	0.052736998
229	0x3c983e55	0.01858441
230	0xbcc56eb0	-0.024100631
231	0x3cec834d	0.028871203
232	0xbd25a43f	-0.04043984
233	0xbd3cd013	-0.046096873
234	0xbca2f393	-0.019891536
235	0x3a66a280	0.0008798018
236	0x3d38904a	0.04505948
237	0x3cd7fc95	0.026365558
238	0xbd1b5823	-0.03792585
239	0x3cc84884	0.02444864
240	0xbd31d8a1	-0.043419484
241	0x3d02d269	0.031938944
242	0xbd53bba4	-0.05169262
243	0xbca529cb	-0.02016153
244	0x3d055bb4	0.032558158
245	0xbd4335b8	-0.047658652
246	0x3ae13d67	0.0017184437
247	0xbd1d0dea	-0.038343348
248	0x3baae68d	0.005215472
249	0xbcca7440	-0.024713635
250	0xbb8e5cf5	-0.0043445774
251	0xbd555e93	-0.052092146
252	0xbd07f46f	-0.033192094
253	0x3d4becb7	0.049786296
254	0xbcd33a96	-0.025784772
255	0x3d0eb0f4	0.034836724

2.bias f4 [128]
0	0x3d7d2e11	0.06181151
1	0x3c3bef00	0.011470556
2	0x3d6261d9	0.055269096
3	0x3bc8371d	0.0061100856
4	0xbb7eb8bb	-0.0038867432
5	0x3d56cae1	0.052439574
6	0x3c287b71	0.010283337
7	0xbd7afd4e	-0.061276726
8	0x3d18f778	0.03734538
9	0x3ca1ff49	0.01977505
10	0xbd1998d8	-0.03749928
11	0x3d7ebdd8	0.062192768
12	0x3c91d955	0.017803827
13	0x3d52bd29	0.05144993
14	0xbcba1b07	-0.022717966
15	0x3bd8ccdc	0.006616218
16	0xbd42dcf9	-0.047574017
17	0x3d68fa35	0.05687924
18	0x3d1f9b07	0.038966205
19	0x3cb692d5	0.022286812
20	0x3bcbf138	0.006223824
21	0xbcef9921	-0.029247822
22	0xbd48c5fc	-0.049016938
23	0xbcadb6df	-0.021205364
24	0x3d3cbb04	0.04607679
25	0xbcd0d634	-0.025492765
26	0x3c861940	0.016369462
27	0x3d3fece2	0.04685677
28	0x3b820b65	0.0039686435
29	0xbcf3b27c	-0.029748194
30	0x3d0635a4	0.032766
31	0x3b87a47f	0.0041394825
32	0x3d0647de	0.03278338
33	0x3bef0ac9	0.007294987
34	0x3d0a0ba0	0.033702493
35	0xbd31e84a	-0.04343442
36	0x3b5f54ab	0.0034077566
37	0xbd29d251	-0.04146034
38	0x3c76e6e9	0.015069702
39	0xbd762809	-0.060096774
40	0xbc298e9c	-0.010348942
41	0x3cfd0146	0.030884396
42	0x3ad20efb	0.0016026193
43	0x3bef6a4c	0.0073063727
44	0x3d824551	0.06360877
45	0xbc2417e4	-0.010015462
46	0x3b5dafc7	0.0033826695
47	0xbd06741b	-0.03282557
48	0xbcceab13	-0.025228059
49	0x3d7cb749	0.06169823
50	0xbcc30789	-0.023807304
51	0x3cb65825	0.022258827
52	0xbcb49c05	-0.022047052
53	0xbd429dd7	-0.04751381
54	0xbba18ed5	-0.004930357
55	0xbb77729e	-0.0037757526
56	0xbd624ae8	-0.055247217
57	0xbd39d970	-0.04537338
58	0xbca26680	-0.019824266
59	0xbd3376b7	-0.043814387
60	0xbb962662	-0.0045822123
61	0x3990b12d	0.00027597827
62	0xbca1baf2	-0.019742463
63	0xbcd29adf	-0.025708614
64	0xbd1f2a83	-0.0388589
65	0x3d54f9b9	0.051995967
66	0x3d2afbd8	0.041744083
67	0x3d464ee2	0.048415072
68	0xbaec83eb	-0.0018044686
69	0xbc2d5b52	-0.0105808545
70	0xbd08772b	-0.033316772
71	0xbd07cf2d	-0.033156563
72	0xbc988706	-0.018619072
73	0xbd6430c0	-0.055710554
74	0xbd4c6759	-0.049903248
75	0xbd41fe28	-0.047361523
76	0x3a9327e9	0.0011227104
77	0xbd25bd76	-0.040463887
78	0xbca2e289	-0.019883411
79	0xbb581abf	-0.0032974926
80	0x3cc0efad	0.023551786
81	0xbd77d469	-0.060505304
82	0x3cb8d8a6	0.022564244
83	0xbc0ac790	-0.008470431
84	0xbc8156a0	-0.015788376
85	0xbd403099	-0.046921346
86	0xbc46a62b	-0.0121245785
87	0x3cde3443	0.02712453
88	0x3d20a2aa	0.03921763
89	0xbd2f705e	-0.04283177
90	0xbd685400	-0.056720734
91	0xbc1e3369	-0.009655812
92	0x3c373b8b	0.01118363
93	0x3cb8726a	0.022515494
94	0x3d711c2f	0.05886477
95	0x3d68d7c2	0.056846388
96	0xbd35ac45	-0.044353742
97	0x3d668d16	0.056286894
98	0x3d1cdeed	0.038298536
99	0xbc83d51b	-0.016092828
100	0x3cce2bae	0.025167312
101	0xbcc58c8c	-0.02411487
102	0x3bc06523	0.0058714314
103	0x3d06c51b	0.03290282
104	0xbd0ebd0e	-0.034848265
105	0xbce027a5	-0.027362654
106	0x3b9c52d4	0.004770616
107	0x3c3c52b1	0.011494325
108	0xbc1b4da7	-0.009478963
109	0xbd3f2647	-0.046667363
110	0x3c0e5ea4	0.008689556
111	0xbd1ce809	-0.038307223
112	0xbd348ca9	-0.044079456
113	0x3d305409	0.043048892
114	0xbc2e75e6	-0.010648226
115	0xbd26d8fd	-0.04073428
116	0x3ce00d83	0.027350193
117	0x3d7acbbd	0.061229456
118	0xbd3040c8	-0.04303053
119	0x3d51502d	0.051101852
120	0xbccfd602	-0.025370602
121	0x3d094348	0.03351143
122	0x3d2591d1	0.040422264
123	0xbd5104e7	-0.051030066
124	0x3d703a6e	0.058649473
125	0x3ca0a85d	0.019611532
126	0x3d85650f	0.06513416
127	0xbd42fc71	-0.047604028

4.weight f4 [64, 128]
0	0x3d61e3d3	0.05514891
1	0x3c86d670	0.016459674
2	0xbd3d9a3a	-0.04628966
3	0xbcf59006	-0.029975902
4	0x3d82f226	0.063938424
5	0x3ceaa566	0.028643321
6	0x3d6a8ad8	0.057261318
7	0xbdb04eac	-0.086087555
8	0xbd7b63ea	-0.061374582
9	0x3d31cff4	0.04341121
10	0x3dad1c59	0.084526725
11	0xbd87ef40	-0.0663743
12	0xbdadb15d	-0.08481095
13	0xbd809db1	-0.06280077
14	0x3d255868	0.040367514
15	0xbd2942d4	-0.041323498
16	0x3dad62c3	0.08466103
17	0x3d00dc5f	0.031460162
18	0xbd939204	-0.07205585
19	0x3d23e234	0.040010646
20	0xbd538c56	-0.051647507
21	0x3d82cd26	0.06386785
22	0x3c50535f	0.01271519
23	0xbd36bea4	-0.044615403
24	0x3d5a6258	0.053316444
25	0xbd15f2d0	-0.036608517
26	0x3d341ed7	0.043974724
27	0xbd9e0e1e	-0.077175364
28	0xbd0c4c14	-0.03425224
29	0xbdbc4dab	-0.091945015
30	0xb9a0cefb	-0.0003067179
31	0xbc60323f	-0.013683855
32	0xbc50592d	-0.012716574
33	0x3d124301	0.03570843
34	0x3d80c060	0.062866926
35	0xbc9fa307	-0.019486917
36	0x3d917e6a	0.0710419
37	0x3c80b974	0.015713431
38	0xbd4fd301	-0.05073834
39	0xbb69315f	-0.0035582406
40	0x3db67176	0.0890836
41	0x3db46a84	0.08809379
42	0xbd8686dd	-0.06568692
43	0xbd9936e3	-0.07481172
44	0xbd948fe4	-0.072540075
45	0x3d9ef2fa	0.07761188
46	0xbda8b3d1	-0.08237422
47	0xbc49db84	-0.012320403
48	0xbd4d8614	-0.050176695
49	0x3d15c351	0.03656322
50	0x3d481809	0.048851047
51	0x3da70c36	0.08156626
52	0x3d01e7e1	0.031715278
53	0x3c56dbd1	0.013113932
54	0xbdae8aeb	-0.0852259
55	0xbd3594d6	-0.044331394
56	0xbb31a63b	-0.0027107138
57	0xbc9f7abc	-0.019467704
58	0x3c8f5b2b	0.017499527
59	0x3d8afd42	0.06786586
60	0xbd3bca23	-0.04584707
61	0xbd9b9635	-0.07597009
62	0xbb1d2fa2	-0.002398469
63	0x3dade034	0.08490029
64	0x3d884830	0.06654394
65	0x3d47fe2c	0.04882638
66	0x3d86a6ad	0.0657476
67	0xbd2d26a4	-0.04227318
68	0x3d9e0065	0.07714919
69	0x3db426a8	0.087964356
70	0xb9ea67b7	-0.00044709232
71	0x3d9aac7a	0.075524285
72	0x3d3098e2	0.04311455
73	0xbc9a3a0c	-0.018826507
74	0xbd12c756	-0.035834633
75	0xbdc05060	-0.0939033
76	0xbdbe6c19	-0.09297962
77	0xbd19af6b	-0.037520807
78	0x3b7a7a42	0.0038219844
79	0xba65d0cf	-0.00087667716
80	0xbc55089a	-0.013002539
81	0x3d9ff40e	0.078102216
82	0x3d4dc0a5	0.05023255
83	0x3c7f2b3e	0.015574275
84	0xbcd4e3f5	-0.025987605
85	0x3d80b5a5	0.06284646
86	0x3d13fc6f	0.03612941
87	0xbc68e43e	-0.014214573
88	0x3d8fdac1	0.07024146
89	0xbc76934b	-0.015049766
90	0x3d331d44	0.04372908
91	0x3cec381f	0.028835354
92	0xbd5d0910	-0.05396372
93	0xbc3888da	-0.011263097
94	0xbd2bd579	-0.04195163
95	0xbd6227c3	-0.0552137
96	0x3cef4fe9	0.029212909
97	0x3d8415b7	0.06449454
98	0x3d34c31e	0.04413139
99	0xbd300581	-0.042974
100	0xbd247661	-0.040151957
101	0x3dc5adba	0.09652276
102	0x3c90f871	0.017696591
103	0x3d090135	0.033448417
104	0xbd99c889	-0.07508952
105	0xbba5c1a0	-0.0050584823
106	0xbda6e237	-0.08148616
107	0xbb068ff7	-0.0020532587
108	0xbd2eb344	-0.04265143
109	0xbd74fde6	-0.05981245
110	0x3bc7fda5	0.006103235
111	0xbce2ee61	-0.027701559
112	0x3a5b7186	0.00083711033
113	0xbd938cf0	-0.07204616
114	0x3dc9d68f	0.09855377
115	0x3d7e3c34	0.062069133
116	0xbcbee2c2	-0.023301486
117	0x3dbc7135	0.0920128
118	0x3dad9182	0.08475019
119	0xbd84db0c	-0.064870924
120	0xbd91094b	-0.070818506
121	0xbd9cff0b	-0.07665833
122	0xbd0df0a2	-0.034653313
123	0x3ba5aea8	0.005056221
124	0xbce7272e	-0.028216925
125	0xbd763b2c	-0.060115024
126	0xbd262259	-0.0405601
127	0x3dad5ea2	0.084653154
128	0xbd450647	-0.04810169
129	0x3ca2364e	0.019801285
130	0xbd3dea9c	-0.04636632
131	0x3ce443ef	0.027864425
132	0x3cdb8e63	0.026801294
133	0xbb83f6cf	-0.0040272246
134	0xbd786175	-0.060639817
135	0x3d6041e5	0.054750342
136	0xbde32dc8	-0.110927165
137	0x3c1e2b46	0.009653872
138	0xbbe20278	-0.006897267
139	0xbd8e1d56	-0.06939189
140	0xbd49b0ba	-0.049240805
141	0xbd00f37c	-0.031482205
142	0xbd8367af	-0.064162605
143	0x3d61d5d0	0.055135548
144	0xbda920c1	-0.082582004
145	0x3cb47b64	0.022031493
146	0x3bd06f9d	0.0063609616
147	0xbd027524	-0.031849995
148	0xbcdf3330	-0.027246088
149	0x3da5ef3e	0.081022725
150	0x3d6ddaf2	0.05807013
151	0x3cab143f	0.020883678
152	0xbc73eb39	-0.014887624
153	0x3d8819d5	0.06645552
154	0x3d04e098	0.03244075
155	0x3d9509b6	0.07277243
156	0xbda4e5aa	-0.080516174
157	0xbc2d7d8a	-0.010589013
158	0x3d530bb8	0.051524848
159	0xbd7e11af	-0.062028583
160	0xbda78f28	-0.08181602
161	0x3b84c0e6	0.0040513156
162	0x3da961d3	0.082706116
163	0xbda4dc34	-0.08049813
164	0xbc8408ef	-0.016117541
165	0xbd7190ba	-0.058975913
166	0x3d13ba99	0.036066625
167	0x3dbf8033	0.09350624
168	0xbdba4d3a	-0.09096761
169	0xbcce3705	-0.02517272
170	0xbda14844	-0.07875112
171	0xba1e85b1	-0.0006047143
172	0xbd0ff1ee	-0.03514283
173	0xbd31ae70	-0.043379247
174	0x3db28276	0.0871629
175	0x3d0bf149	0.034165654
176	0x3d81b0cd	0.0633255
177	0xbd29e593	-0.041478705
178	0x3ccff48b	0.025385162
179	0x3d95a0dc	0.07306072
180	0x3d992cee	0.07479273
181	0x3c21893f	0.009859382
182	0x3daac654	0.08338609
183	0x3dcd43ea	0.10022719
184	0xbc1703eb	-0.009217243
185	0x3c2a3c01	0.010390283
186	0x3dd7f1a7	0.105441384
187	0x3d4faab2	0.050699897
188	0xbdab26e8	-0.0835703
189	0x3ccc6e7d	0.024955029
190	0xbd00d390	-0.03145176
191	0xbdeb3d7c	-0.114863366
192	0x3ae890ae	0.0017743313
193	0x3c118b28	0.008883275
194	0x3d8eea00	0.06978226
195	0x3d4367ae	0.0477063
196	0x3cf5ff57	0.030028982
197	0x3cd06f57	0.025443716
198	0x3ce5a650	0.028033406
199	0xbcb2271a	-0.02174716
200	0x3d0b34bf	0.03398585
201	0x3d5c899e	0.05384218
202	0xbdb8d539	-0.09025044
203	0xbda3ef9b	-0.080046855
204	0x3d71d112	0.059037276
205	0xbdae545b	-0.08512183
206	0xbcb3b192	-0.021935258
207	0x3cae1061	0.021248044
208	0xbda4a6c3	-0.0803962
209	0x3c61ba45	0.01377732
210	0xbd0d4bfe	-0.0344963
211	0xbd8c41f4	-0.06848517
212	0x3b93bf59	0.0045088944
213	0xbd6cbce5	-0.05779733
214	0xbdaa8ea2	-0.08327986
215	0xbdbe9b51	-0.09306968
216	0x3d9c8219	0.07642002
217	0xbd1416d5	-0.036154587
218	0xbd7a5164	-0.061112776
219	0x3db9e818	0.090774715
220	0x3cab4f24	0.02091176
221	0x3d352e76	0.04423376
222	0xbd170222	-0.03686727
223	0x3de776d8	0.113019645
224	0x3c92404d	0.017852927
225	0x3d75e061	0.060028438
226	0x3c56fcc1	0.013121785
227	0x3c7b22c3	0.015328112
228	0xbd02e487	-0.031956222
229	0x398e1d3c	0.00027106132
230	0xbd41fd18	-0.04736051
231	0x3d846a7b	0.06465622
232	0x3da2a0d0	0.07940829
233	0x3d8512db	0.06497737
234	0x3d84d0a1	0.06485105
235	0x3bc9cfa3	0.0061587854
236	0xbde9e6fe	-0.114210114
237	0x3d5f90e7	0.05458155
238	0x3d8c91f4	0.06863776
239	0x3dcc4670	0.099743724
240	0x3d3cbd68	0.04607907
241	0xbd7c9764	-0.061667815
242	0x3d85523b	0.06509825
243	0x3cc28991	0.023747237
244	0x3bd226ac	0.0064133015
245	0xbd82b34c	-0.063818544
246	0xbdc1461c	-0.094372004
247	0xbd893109	-0.06698806
248	0x3dcf57d1	0.101241715
249	0xbced7230	-0.028985113
250	0x3c22005a	0.009887779
251	0x3d547a41	0.051874403
252	0xbd7d16f4	-0.061789468
253	0x3ca91cf5	0.02064369
254	0x3d852cb5	0.06502668
255	0xbd097698	-0.033560365

4.bias f4 [64]
0	0x3d1c5ac5	0.038172502
1	0xbd91be05	-0.071163215
2	0xbd59124b	-0.05299596
3	0x3c8a50fd	0.016884321
4	0xbc938c4c	-0.018011235
5	0xbd8447f6	-0.06459038
6	0x3bf19c03	0.0073733344
7	0xbc781557	-0.015141807
8	0x3be8478a	0.0070886062
9	0xbd8ea30c	-0.069646925
10	0x3cfc72b2	0.03081641
11	0xbbe32a52	-0.006932535
12	0x3d88758d	0.06663046
13	0x3d5b5ce0	0.05355537
14	0xbd11aac6	-0.035563253
15	0xbd4e4111	-0.05035502
16	0x3d342dfb	0.043989163
17	0x3d7ba9c6	0.061441205
18	0x3c91b886	0.017788183
19	0xbd8696e2	-0.06571747
20	0x3b4fed72	0.0031727222
21	0x3cea559d	0.028605277
22	0x3c247403	0.010037425
23	0xbd451ea8	-0.04812494
24	0x3da71f89	0.08160312
25	0xbd4a66f7	-0.0494146
26	0x3d56baae	0.052424125
27	0x3daf00bc	0.08545062
28	0xbd6285ca	-0.055303372
29	0xbd523f4a	-0.05132989
30	0x3cc08712	0.023501907
31	0x3d89007c	0.066895455
32	0x3c485753	0.012227851
33	0x3dbb2513	0.09137931
34	0xbcd32e96	-0.02577905
35	0xbd0d8bea	-0.03455726
36	0xbd8f6610	-0.07001889
37	0xbd40ad57	-0.04704031
38	0x3ca026e3	0.019549793
39	0xbd4ba27b	-0.0497155
40	0x3c6a8e8b	0.014316211
41	0xbd6a9c6c	-0.05727808
42	0x3d6bbc9c	0.05755292
43	0xbcad56b9	-0.021159517
44	0x3daf2afe	0.08553122
45	0xbdaa1515	-0.08304802
46	0x3c41fff0	0.011840805
47	0x3d50f786	0.051017307
48	0xbcb9661e	-0.022631701
49	0xbbe911e2	-0.0071127275
50	0xbd5125f4	-0.051061586
51	0x3d76d796	0.060264193
52	0x3d894a13	0.06703582
53	0x3d0f0f4d	0.0349267
54	0xbd710b03	-0.058848392
55	0xbdb2c8e9	-0.08729727
56	0x3d05f22d	0.03270166
57	0x3d868161	0.06567646
58	0xbd854948	-0.06508118
59	0x3d1c1223	0.038103234
60	0xbcbb6f79	-0.022880303
61	0x3d117bc5	0.035518426
62	0xba2f413a	-0.000668544
63	0xbd9ee5c4	-0.07758668

6.weight f4 [16, 64]
0	0xbd8ec148	-0.06970459
1	0xbc482d3b	-0.012217815
2	0xbda43bc0	-0.08019209
3	0xbe121126	-0.14264354
4	0xbdd49e9a	-0.10381813
5	0x3de80793	0.1132957
6	0xbc60a97b	-0.013712282
7	0xbd905f8f	-0.07049476
8	0x3d01ce2e	0.03169077
9	0xbdcc163c	-0.09965178
10	0xbbf8b475	-0.0075898715
11	0x3d4b021d	0.049562562
12	0x3e129724	0.14315468
13	0x3d019ff5	0.031646688
14	0xbc12f241	-0.008968891
15	0xbd348780	-0.044074535
16	0x3dceeac8	0.10103375
17	0x3b8b6439	0.004253891
18	0x3e2302f8	0.15919101
19	0x3d34bc21	0.044124726
20	0xbd0a7c77	-0.033810105
21	0xbdb07a7e	-0.086171135
22	0xbda16d30	-0.07882154
23	0x3e03a1e5	0.12854727
24	0xbd0718b8	-0.032982558
25	0xbcddab5f	-0.027059255
26	0x3d34b1af	0.044114765
27	0xbd963813	-0.07334914
28	0xbdedb18c	-0.1160613
29	0x3c1de72b	0.009637634
30	0x3df64544	0.1202493
31	0x3e0091ed	0.12555666
32	0x3cfed646	0.031108033
33	0x3cbe912e	0.023262586
34	0xbd08eae6	-0.03342714
35	0x3daf38ee	0.0855578
36	0xbdf61e39	-0.12017483
37	0xbe0bbfd8	-0.13647401
38	0xbdc5c42e	-0.09656559
39	0x3d380bc3	0.04493309
40	0x3d69e4d7	0.057103004
41	0xbd456aac	-0.048197433
42	0x3de9f422	0.11423518
43	0xbd69e7ce	-0.05710583
44	0xbe172ef7	-0.1476401
45	0x3d075222	0.033037312
46	0x3ddf519e	0.10904239
47	0x3d6507bf	0.05591559
48	0xbb10d1c3	-0.0022097684
49	0x3d91aa93	0.071126126
50	0xbda6c37b	-0.08142754
51	0xbdcb5a14	-0.099292904
52	0x3d185a80	0.037195683
53	0xbdbac7df	-0.09120154
54	0x3bf4b870	0.0074682757
55	0xbcc023f4	-0.023454644
56	0xbd0ff789	-0.035148177
57	0xbdac23cd	-0.08405266
58	0x3d99a0ae	0.0750135
59	0xbdc2d695	-0.095135845
60	0xbd1fcc39	-0.03901312
61	0xbc435473	-0.01192199
62	0xbd68259e	-0.0566765
63	0xbabf55db	-0.001459773
64	0xbd264886	-0.040596507
65	0xbda96e64	-0.082730085
66	0xbceafcea	-0.028685052
67	0x3dc58acb	0.09645613
68	0xbdc0afd7	-0.09408539
69	0x3d7c69ef	0.061624464
70	0xbd7276ca	-0.059195317
71	0xbab23871	-0.0013597143
72	0x3daa56fa	0.08317371
73	0xbdd41b06	-0.10356717
74	0xbdcc9179	-0.09988684
75	0x3e0336ad	0.12813826
76	0x3cfa7401	0.030572893
77	0xbd88a449	-0.0667196
78	0x3d54f189	0.05198816
79	0x3cb0526d	0.021523679
80	0x3c13e908	0.009027727
81	0x3d1bce31	0.038038436
82	0x3dfc2401	0.12311555
83	0xbd5eb348	-0.054370195
84	0x3d88fb5d	0.06688569
85	0x3e068337	0.13135992
86	0xbd34ad07	-0.044110324
87	0x3d826c33	0.063682936
88	0x3de18520	0.1101172
89	0x3e00a58f	0.12563156
90	0x3c059a89	0.00815452
91	0x3db4fea2	0.0883763
92	0x3d8bb0fd	0.06820867
93	0x3bc6f65d	0.0060718493
94	0xbdbd001c	-0.092285365
95	0x3dcfc809	0.101455756
96	0x3d2f40b3	0.04278631
97	0x3d28985f	0.041160937
98	0xbddd7d07	-0.10814863
99	0xbccad456	-0.024759453
100	0xbd6eef7a	-0.05833385
101	0xbdb2facf	-0.08739244
102	0x3cf5bd90	0.029997617
103	0x3dad2527	0.08454352
104	0xbcdd73b0	-0.027032703
105	0xbca68cb4	-0.020330764
106	0xbde3cd0c	-0.11123094
107	0xbdcf6828	-0.10127288
108	0xbd92653f	-0.071482174
109	0xbd5dff50	-0.054198563
110	0x3ccc83da	0.024965215
111	0x3dce816c	0.10083279
112	0x3ca19550	0.019724518
113	0xbdbefcb7	-0.09325545
114	0xbdea3daf	-0.114375465
115	0xbd900157	-0.070315056
116	0xbb637b66	-0.0034711002
117	0x3d211a2a	0.039331593
118	0x3d9d2e9f	0.07674908
119	0x3dc52a25	0.09627179
120	0x3c9e1303	0.019296175
121	0x3da80a77	0.08205121
122	0xbd19a310	-0.037509024
123	0xbdae67a1	-0.085158594
124	0x3de6c382	0.11267759
125	0xbd1c68bd	-0.038185824
126	0x3d43ea53	0.04783089
127	0x3dc04f80	0.093901634
128	0x3de2e621	0.1107905
129	0x3e0734c1	0.13203718
130	0xbcd03bd9	-0.025419163
131	0x3cecc330	0.028901666
132	0x3de0bd36	0.10973589
133	0x3dc3900c	0.09548959
134	0xbe00a67a	-0.12563506
135	0xbdf0720f	-0.11740505
136	0x3cfba8af	0.030720083
137	0x3e1df30c	0.15424746
138	0xbd84cc02	-0.06484224
139	0x3d4f742c	0.0506479
140	0x3de79d98	0.113093555
141	0x3cf63274	0.030053355
142	0xbd6d0c9e	-0.05787336
143	0x3d265337	0.040606704
144	0x3df6adc8	0.12044865
145	0x3e0fb86c	0.14035195
146	0xbc243ef3	-0.010024774
147	0x3e1d3e09	0.15355696
148	0x3dbb33c9	0.091407366
149	0xbcabb706	-0.020961296
150	0xbdd774c4	-0.10520318
151	0xbddd088e	-0.10792647
152	0x3c8bd266	0.0170681
153	0xbe023e9b	-0.12719195
154	0x3d8a114e	0.06741582
155	0xbdcfb9cf	-0.10142862
156	0x3d1c1b72	0.03811211
157	0xbce731be	-0.028221961
158	0x3bdab60b	0.0066745332
159	0x3d8875aa	0.06663068
160	0x3e01f2b0	0.12690234
161	0x3d5e4d55	0.05427297
162	0x3dfd9f1c	0.12383863
163	0xbcfc187b	-0.030773392
164	0xbe090623	-0.13381247
165	0x3d785db6	0.060636245
166	0x3cb160db	0.02165263
167	0x3c1512c4	0.009098712
168	0xbddad012	-0.106842175
169	0x3dd03082	0.10165502
170	0xbd8be992	-0.068316594
171	0xbd526b8e	-0.051372103
172	0x3c12aebd	0.008952794
173	0xbddf12ba	-0.10892244
174	0x3d6d8e1b	0.05799685
175	0x3ca6be51	0.020354422
176	0xbdd914b2	-0.105996504
177	0xbdcff543	-0.10154202
178	0xbdd496a1	-0.10380293
179	0x3d9d2763	0.07673528
180	0x3c355fa4	0.011070166
181	0x3dc830ad	0.09774909
182	0x3d01a2ba	0.03164933
183	0x3d53cbaf	0.05170792
184	0xbbd49e04	-0.0064885635
185	0x3da8451f	0.08216309
186	0x3ddc6a02	0.10762407
187	0x3d4dc1ba	0.05023358
188	0x3db110c0	0.08645773
189	0xbd34eb81	-0.044169907
190	0xbcb41b14	-0.021985568
191	0x3d5a71e7	0.053331282
192	0x3da073d7	0.07834595
193	0xbe362043	-0.17785744
194	0xbdcd6567	-0.100291066
195	0xbd3777c6	-0.04479196
196	0xbd64e5e5	-0.055883307
197	0x3dd5771f	0.10423111
198	0x3e4ad091	0.19806124
199	0x3ca9855d	0.020693475
200	0x3de922b6	0.11383574
201	0x3c9e0317	0.019288583
202	0xbdf0c915	-0.11757103
203	0xbdd87a72	-0.105702296
204	0xbe12ec0f	-0.14347862
205	0xbd682bfa	-0.056682564
206	0x3de138fb	0.10997196
207	0xbe38b94b	-0.18039434
208	0xbe36659c	-0.17812198
209	0xbc1920e9	-0.009346225
210	0x3e2de8f2	0.16983393
211	0x3de04489	0.10950572
212	0xbe1ab75c	-0.15109009
213	0xbdbdaab0	-0.09261072
214	0x3d1ed6ad	0.03877895
215	0x3e8dcda4	0.27695954
216	0xbe017286	-0.12641343
217	0x3d9ce19c	0.07660219
218	0xbe00bdde	-0.12572429
219	0x393f77c5	0.00018259797
220	0x3d217e3b	0.039427023
221	0x3df45afd	0.11931417
222	0xbd70fd9b	-0.058835607
223	0xbe35424d	-0.17701073
224	0x3df094ca	0.11747129
225	0x3e1c6c03	0.15275578
226	0xbcf9ad1b	-0.030478051
227	0x3e142177	0.14465891
228	0x3d874cdc	0.06606457
229	0x3e1cc4e8	0.15309489
230	0xbe5affe5	-0.21386679
231	0x3d328390	0.0435825
232	0x3d1ef9ae	0.03881233
233	0x3cb5c8ce	0.022190478
234	0x3ca71d24	0.020399638
235	0x3c68d1c6	0.01421017
236	0x3df25a75	0.118336596
237	0xbdf27ee4	-0.11840609
238	0x3d93bb94	0.07213512
239	0xbc9b22a9	-0.018937426
240	0xbde8b4a5	-0.1136258
241	0xbd8cd2bc	-0.06876132
242	0xbe336b95	-0.17521508
243	0x3d4b86d0	0.049689114
244	0x3e24bc37	0.16087423
245	0xbe38aebe	-0.18035409
246	0x3e235d52	0.15953568
247	0xbdf70362	-0.12061192
248	0xbcca743f	-0.024713634
249	0x3e1075c8	0.1410743
250	0x3e7ba969	0.24576344
251	0x3e08880a	0.13333145
252	0x3d182c55	0.037151653
253	0x3da6ea44	0.08150151
254	0xbdb6050c	-0.08887681
255	0x3c491e39	0.012275272

6.bias f4 [16]
0	0x3d09460b	0.033514064
1	0xbc1809e2	-0.0092797
2	0x3d053ffb	0.03253172
3	0xbd022cd2	-0.031781025
4	0x3da3e21f	0.080021136
5	0xbe003f30	-0.12524104
6	0xbd9d91c4	-0.07693818
7	0xbd092cce	-0.033489995
8	0x3c86e3e5	0.01646609
9	0xbd8735de	-0.06602071
10	0x3d3d6603	0.046239864
11	0xbdd88d7c	-0.10573861
12	0x3c9c5752	0.019084606
13	0x3e2efde6	0.17089042
14	0xbb18985d	-0.0023284175
15	0x3d58246a	0.052769102

8.weight f4 [4, 16]
0	0xbdf54a1f	-0.11977028
1	0xbdd9c834	-0.10633889
2	0x3da4fb05	0.08055691
3	0x3ec95ebf	0.39330098
4	0x3e314ac8	0.17313683
5	0xbd89d22c	-0.0672954
6	0xbe499cfe	-0.19688794
7	0xbea65108	-0.32483697
8	0x3e259f23	0.16173987
9	0x3e2bed4b	0.16789739
10	0xbdd06941	-0.101763256
11	0xbdcda771	-0.100417025
12	0xbdfcd2d6	-0.12344901
13	0x3eb84eed	0.35997716
14	0xbe05d687	-0.13070117
15	0xbef69635	-0.48161474
16	0x3e18f5ef	0.14937566
17	0x3e45e8b4	0.1932705
18	0x3e5375bf	0.20650385
19	0xbf17c1d6	-0.59280145
20	0xbdb3590a	-0.08757217
21	0xbe88da29	-0.26728943
22	0xbe79ba26	-0.24387416
23	0x3ce39217	0.027779622
24	0x3d6a907d	0.0572667
25	0x3f0ccf8b	0.55004185
26	0x3d31ff2a	0.043456234
27	0x3e71b465	0.23603971
28	0x3dedf2e1	0.11618591
29	0xbd55f52a	-0.05223576
30	0x3e64ea54	0.22355014
31	0xbe4212c1	-0.18952467
32	0x3deb37c4	0.11485246
33	0xbe547942	-0.20749381
34	0x3e16ee5f	0.14739369
35	0x3d58ad45	0.052899618
36	0x3d4511c8	0.04811266
37	0xbe4f11ac	-0.20221585
38	0x3ad7c884	0.0016462957
39	0x3e223e3a	0.1584405
40	0x3e86b05e	0.26306432
41	0xbe96e203	-0.29469308
42	0xbe5344a8	-0.20631659
43	0xbe32b97d	-0.1745357
44	0x3e4aac22	0.19792226
45	0xbe79fdc0	-0.24413204
46	0xbea761f1	-0.3269191
47	0x3d39709c	0.04527341
48	0x3e8a03c0	0.26955986
49	0x3cd96dbd	0.026541585
50	0xbe942ad7	-0.28938934
51	0xbeab27e0	-0.3342886
52	0xbdf6d5ba	-0.12052484
53	0x3d5599be	0.052148573
54	0x3e008b02	0.12553027
55	0xbc859935	-0.016308406
56	0x3e1c06a4	0.15236908
57	0xbe5361e6	-0.20642814
58	0xbe6440e8	-0.22290385
59	0x3e34a83d	0.17642303
60	0x3e540e67	0.20708619
61	0x3ec127f2	0.37725788
62	0xbe59f4d8	-0.21284807
63	0x3ed2b5cf	0.41154334

8.bias f4 [4]
0	0xbc3ef857	-0.0116558885
1	0xbe44616c	-0.19177788
2	0xbe0b797d	-0.13620563
3	0xbe25f7cd	-0.1620781
